checkpoint/head-epoch35.pth (torch_old, 49786 bytes, 2 tensors)

weight f4 [24, 512]
0	0xbdcf368b	-0.10117825
1	0x3cb76b83	0.022390133
2	0x3e0612f7	0.13093172
3	0xbdb752cf	-0.08951341
4	0xbdb2db4f	-0.08733236
5	0x3e088dcf	0.13335346
6	0x3d22fdf3	0.039792966
7	0xbdf96ce9	-0.12178976
8	0xbd6dc5bb	-0.0580499
9	0xbde8ecc9	-0.11373288
10	0x3d6b1aa2	0.057398446
11	0xbe088ef1	-0.13335778
12	0xbe039b0e	-0.12852117
13	0x3dde594b	0.10856875
14	0x3dacac71	0.08431328
15	0x3d2b90f2	0.041886277
16	0x3d813cce	0.06310426
17	0xbdf6c46f	-0.120491855
18	0x3dad5043	0.08462574
19	0xbe5493e8	-0.20759547
20	0x3d97a7ec	0.074050754
21	0x3ce37365	0.027764985
22	0x3b6ec002	0.0036430364
23	0xbd6b5c0f	-0.05746084
24	0xbce9ba06	-0.028531086
25	0x3d5da799	0.05411491
26	0x3d5dbc59	0.0541347
27	0x3e090362	0.13380197
28	0x3d6e70ce	0.058213048
29	0x3d18e812	0.037330694
30	0xbd691c9a	-0.056912042
31	0x3dbf809b	0.093507014
32	0x3d7ff994	0.062493876
33	0x3dc4eb54	0.09615198
34	0xbe0168cf	-0.12637638
35	0x3d92e231	0.07172049
36	0xbdb28c3f	-0.08718156
37	0x3d07c3e7	0.03314581
38	0xbde69a3e	-0.11259888
39	0x3d80fa82	0.062977806
40	0x3e160055	0.14648564
41	0xbd819d90	-0.06328881
42	0xbe066de9	-0.13127865
43	0xbddb9aaf	-0.10722863
44	0x3d9c657d	0.07636545
45	0x3d8076bb	0.06272646
46	0xbd780165	-0.060548205
47	0xbad132f7	-0.0015960623
48	0x3d1b2cc6	0.037884496
49	0xbd1cbc35	-0.038265426
50	0x3cc83963	0.024441427
51	0xbdb0f964	-0.086413175
52	0xbe008eef	-0.12554525
53	0x3da13a21	0.07872415
54	0xbe2be5b7	-0.16786848
55	0xbd4b13d4	-0.049579456
56	0x3dcf97e2	0.10136391
57	0x3d947d52	0.072504655
58	0xbe06e77c	-0.13174242
59	0xbce17160	-0.027519882
60	0xbe2c09c6	-0.16800603
61	0x3d095cbb	0.0335357
62	0xbd7a4bd3	-0.061107468
63	0x3d7368b7	0.059426036
64	0x3dc94bcd	0.09828911
65	0x3e319845	0.17343242
66	0x3de0cc09	0.109764166
67	0xbde754c1	-0.112954624
68	0x3df45cde	0.119317755
69	0xbe24a52a	-0.1607863
70	0x3e33b08d	0.17547818
71	0xbc43ba87	-0.011946327
72	0xbd1f042a	-0.03882233
73	0xbd7aec5a	-0.06126056
74	0x3dee1c9f	0.11626553
75	0xbd8934b7	-0.06699508
76	0x3dbbd69f	0.09171795
77	0xbe2c03ec	-0.16798371
78	0xbd9d4b53	-0.076803826
79	0xbe0a20b0	-0.13489032
80	0x3dcf672e	0.10127102
81	0x3d87f794	0.06639019
82	0xbe06cfcc	-0.13165206
83	0xbb69cf35	-0.0035676484
84	0x3d05b4b0	0.03264302
85	0xbdaeaed3	-0.08529439
86	0x3da8d577	0.0824384
87	0x3df12532	0.117746726
88	0x3d47f3c1	0.048816446
89	0x3dabb6b3	0.083844565
90	0x3cd7b766	0.026332568
91	0xbda7b591	-0.08188928
92	0xbdb3b073	-0.087738894
93	0x3da15bfc	0.07878873
94	0x3dc7c202	0.09753801
95	0x3ce49195	0.02790145
96	0xbcc2fef6	-0.023803215
97	0x3de4b8c6	0.11168055
98	0x3d228e83	0.03968669
99	0x3d9397d0	0.0720669
100	0xbd6ba187	-0.05752709
101	0x3bfdcb24	0.0077451635
102	0x3dc82f29	0.0977462
103	0x3c5b6cd0	0.013392642
104	0x3e019a57	0.12656532
105	0xbe13bb8e	-0.14427015
106	0x3debedcd	0.11519966
107	0x3d6a17d4	0.05715163
108	0x3d87408a	0.06604107
109	0x3dacbf0f	0.08434879
110	0xbd5ca908	-0.05387214
111	0xbd57997a	-0.0526366
112	0xbda6e0e7	-0.081483655
113	0x3d8bdb53	0.06828942
114	0xbc090950	-0.008364037
115	0xbe049e44	-0.12950999
116	0x3d9310f5	0.07180969
117	0x3da9a890	0.08284104
118	0xbdbee758	-0.09321469
119	0xbdacc0e0	-0.084352255
120	0xbd3b3d30	-0.04571265
121	0x3dc558f9	0.09636111
122	0xbd8e51fe	-0.069492325
123	0xbceb94a3	-0.028757399
124	0xbdf6a8ab	-0.120438896
125	0x3e08c93d	0.13358016
126	0xbd9db905	-0.07701305
127	0x3e18e063	0.14929347
128	0xbe1663ac	-0.1468646
129	0xbd59ed4c	-0.05320482
130	0x3d82b99d	0.06383059
131	0x3dbb9210	0.091587186
132	0xbda366c6	-0.07978587
133	0xbbafda6d	-0.0053666146
134	0x3db41021	0.08792139
135	0xbd9a466a	-0.07532962
136	0xbdd103af	-0.10205781
137	0x3d84e92b	0.06489786
138	0x3b6f70a4	0.0036535645
139	0xbd92d172	-0.07168855
140	0xbd4d16c7	-0.05007055
141	0x3cc5a4e2	0.024126474
142	0xbd85bba1	-0.06529928
143	0xbdf64f13	-0.12026801
144	0x3d23ae65	0.039961237
145	0xbe2be9f8	-0.16788471
146	0x3baf4311	0.005348571
147	0x3d05b5c1	0.032644037
148	0xbdb66f8d	-0.089079954
149	0xbd6c99a0	-0.057763696
150	0x3db7afec	0.08969101
151	0xbdb7bcc4	-0.08971551
152	0xbd763977	-0.060113396
153	0x3dda92be	0.1067252
154	0x3d93b22b	0.07211717
155	0x3dfa3a22	0.12218119
156	0x3d3c1a41	0.045923475
157	0x3e0ddcd5	0.13853772
158	0x3dba9c7a	0.09111877
159	0xbdbeb999	-0.09312744
160	0x3de59e59	0.11211843
161	0xbd8df26e	-0.069310054
162	0x3decf78f	0.115706556
163	0x3db69743	0.0891557
164	0x3e0542ec	0.1301381
165	0xbdad943a	-0.084755376
166	0x3d2ee914	0.04270275
167	0x3d3ca885	0.04605915
168	0xbd726d6a	-0.059186377
169	0x3dbecf4b	0.09316882
170	0x3dcae5ab	0.09907087
171	0x3d5e0de2	0.05421246
172	0xbe072fe7	-0.13201867
173	0x3c93a0b4	0.018020965
174	0xbdb51989	-0.08842761
175	0x3e1f64bf	0.15565775
176	0x3da38608	0.07984549
177	0x3de8f055	0.11373965
178	0xbe1a1ff8	-0.15051258
179	0x3e0d06b4	0.13772088
180	0xbc47e130	-0.012199685
181	0x3dbec2cf	0.093145005
182	0x3d819b07	0.06328397
183	0xbda4c6c5	-0.08045725
184	0x3cfb3b31	0.030667873
185	0xbdb2211c	-0.08697721
186	0xbdadf561	-0.08494068
187	0xbc3591d2	-0.01108213
188	0x3d12847a	0.03577087
189	0x3dbf3ffd	0.09338377
190	0x3dd92cd0	0.106042504
191	0x3c3af118	0.01141002
192	0x3dfe5cb7	0.12420028
193	0xbcd2b32e	-0.025720205
194	0xbd032d73	-0.032025766
195	0x3e00e624	0.12587792
196	0x3d237cc7	0.03991392
197	0xbdefeb2f	-0.117147796
198	0x3d43fb8e	0.047847323
199	0xbd8ea8ca	-0.06965788
200	0xbdc9721a	-0.09836216
201	0x3cd9c8be	0.02658498
202	0x3c94acb0	0.01814875
203	0x3dfd3e34	0.1236538
204	0x3d84ca8f	0.064839475
205	0xbd9dadd6	-0.07699172
206	0xbda67964	-0.08128622
207	0x3c8db69d	0.01729899
208	0x3cb0296d	0.021504128
209	0x3d934f02	0.07192804
210	0xbdae24e5	-0.08503131
211	0x3e488e63	0.19585566
212	0xbdda3f42	-0.10656597
213	0x3dcb58a6	0.09929018
214	0xbdb0cf1a	-0.086332515
215	0xbe121b57	-0.14268242
216	0x3da6b6fa	0.08140369
217	0xbdcc628d	-0.099797346
218	0xbda02899	-0.078202434
219	0x3dda96a9	0.106732674
220	0x3d80e50f	0.062936895
221	0x3d0bd7fd	0.03414153
222	0xbe46eedc	-0.19427055
223	0xbd73ecb8	-0.059551924
224	0x3d4b92d5	0.049700577
225	0x3d94093c	0.07228324
226	0xbe187dc7	-0.1489173
227	0x3dd5d1d9	0.10440416
228	0x3d8aab2c	0.0677093
229	0xbdec93dc	-0.115516394
230	0xbdc8b8e3	-0.09800889
231	0xbdd26f56	-0.10275142
232	0xbdeb5780	-0.11491299
233	0x3dc1f9d6	0.094714805
234	0xbdd17ae5	-0.102285184
235	0xbdd85975	-0.105639376
236	0xbd972f4e	-0.073820695
237	0xbc92b55e	-0.017908748
238	0xbdad8f89	-0.08474643
239	0xbd7f9dd2	-0.06240637
240	0xbd09ace5	-0.03361215
241	0x3e0c5158	0.13702905
242	0x3dfcb453	0.123390816
243	0xbd44a0e7	-0.04800501
244	0xbd886cce	-0.06661378
245	0xbdd19f93	-0.102355145
246	0x3e05de2c	0.13073033
247	0x3cf2ba4e	0.029629853
248	0x3de6ec3f	0.11275529
249	0x3dc5b57c	0.09653756
250	0x3cc7f1e8	0.024407342
251	0xbde8000a	-0.113281325
252	0xbde1b8ba	-0.11021562
253	0xbe16b422	-0.14717153
254	0x3d861cf2	0.0654849
255	0xbd604e41	-0.05476213

bias f4 [24]
0	0x3f4764fd	0.7788847
1	0x3e6f8cfa	0.23393622
2	0x3e5b54bf	0.21419047
3	0x3ec1425f	0.3774595
4	0x3e421afd	0.18955608
5	0x3eefd5a7	0.4684269
6	0xbe8417b4	-0.25799334
7	0xbe7f64bd	-0.24940772
8	0x3df7ca19	0.12099094
9	0x3e871899	0.26385954
10	0x3ec6141a	0.3868721
11	0x3ded8d21	0.11599184
12	0xbe5b0a94	-0.21390754
13	0xbe85b2ed	-0.26113072
14	0xbe5a41ac	-0.21314114
15	0xbeb108b7	-0.3457696
16	0xbe9671ef	-0.293838
17	0xbe9273e1	-0.28604034
18	0x3ee7b6f8	0.45256782
19	0xbe829d3d	-0.25510588
20	0xbeabaac1	-0.33528712
21	0xbec04199	-0.37550047
22	0xbe8bfe18	-0.27342296
23	0xbe77fa46	-0.24216565
